Model/digit_recognition_int8.tflite (tflite, 70752 bytes, 19 tensors)

Incept_DS_DigitModel/predictions/MatMul i1 [10, 256] scale=0.0011825301 zero_point=0
000000 9f 28 ba 00 d9 5c f6 f9 18 03 85 fc 6c 1b 98 f1
       -0.11470541 0.047301203 -0.082777105 0.0 -0.046118673 0.10879277 -0.011825301 -0.0082777105 0.028380722 0.0035475902 -0.1454512 -0.0047301203 0.12771325 0.031928312 -0.12298313 -0.017737951
000010 66 cc 3c 9f 0e 79 77 72 d2 f8 33 1f 31 ad ce c6
       0.12061807 -0.061491564 0.070951805 -0.11470541 0.016555421 0.14308614 0.14072108 0.13480842 -0.054396383 -0.009460241 0.060309034 0.036658432 0.057943974 -0.09815 -0.059126504 -0.068586744
000020 a2 98 aa 16 a9 69 1a bf a6 d8 cc f6 8a 03 57 e4
       -0.11115783 -0.12298313 -0.10169759 0.026015662 -0.10288012 0.124165654 0.030745782 -0.07686445 -0.10642771 -0.047301203 -0.061491564 -0.011825301 -0.13953856 0.0035475902 0.10288012 -0.033110842
000030 04 68 c0 cc 27 52 be fa 07 6f c2 2b b9 c4 e0 d2
       0.0047301203 0.12298313 -0.075681925 -0.061491564 0.046118673 0.096967466 -0.078046985 -0.0070951805 0.0082777105 0.13126084 -0.073316865 0.050848793 -0.08395964 -0.070951805 -0.037840962 -0.054396383
000040 2c 28 8f df 96 a6 c9 69 6b 5d 31 c1 38 8e 17 7c
       0.052031323 0.047301203 -0.1336259 -0.039023492 -0.12534818 -0.10642771 -0.06503916 0.124165654 0.12653072 0.10997529 0.057943974 -0.0744994 0.066221684 -0.13480842 0.027198192 0.14663373
000050 76 70 ac bd 08 d5 dd 8a 8b 2b cc 1d cb 9b bd 50
       0.13953856 0.13244337 -0.09933253 -0.07922952 0.009460241 -0.050848793 -0.041388553 -0.13953856 -0.13835602 0.050848793 -0.061491564 0.034293372 -0.06267409 -0.119435534 -0.07922952 0.094602406
000060 7a 6b 4f 2c 27 04 7e 53 94 28 0b 00 ab eb 22 66
       0.14426866 0.12653072 0.09341988 0.052031323 0.046118673 0.0047301203 0.1489988 0.09815 -0.12771325 0.047301203 0.013007831 0.0 -0.10051505 -0.024833132 0.040206023 0.12061807
000070 95 e6 32 53 8e cc 43 cc 03 e7 e0 05 e8 20 f5 7b
       -0.12653072 -0.030745782 0.059126504 0.09815 -0.13480842 -0.061491564 0.07922952 -0.061491564 0.0035475902 -0.029563252 -0.037840962 0.0059126504 -0.028380722 0.037840962 -0.013007831 0.1454512
000080 1f b0 b6 a1 35 d4 bf c2 a2 e7 3a fa 81 5c 83 aa
       0.036658432 -0.094602406 -0.087507226 -0.11234036 0.06267409 -0.052031323 -0.07686445 -0.073316865 -0.11115783 -0.029563252 0.068586744 -0.0070951805 -0.15018132 0.10879277 -0.14781626 -0.10169759
000090 bd d6 b6 6b dc 85 89 a1 6e 2f 09 11 4e ce 50 d7
       -0.07922952 -0.049666263 -0.087507226 0.12653072 -0.042571083 -0.1454512 -0.14072108 -0.11234036 0.13007832 0.055578914 0.010642771 0.020103011 0.092237346 -0.059126504 0.094602406 -0.048483733
0000a0 c3 a1 54 a5 99 6d 00 d9 f2 bb be d7 41 39 f0 8b
       -0.07213433 -0.11234036 0.09933253 -0.10761024 -0.1218006 0.12889577 0.0 -0.046118673 -0.016555421 -0.08159457 -0.078046985 -0.048483733 0.07686445 0.06740421 -0.018920481 -0.13835602
0000b0 f5 c3 74 5b 82 9d 14 eb d6 e1 a9 ef 3c ad 6c f0
       -0.013007831 -0.07213433 0.13717349 0.10761024 -0.1489988 -0.11707048 0.023650602 -0.024833132 -0.049666263 -0.036658432 -0.10288012 -0.020103011 0.070951805 -0.09815 0.12771325 -0.018920481
0000c0 9c 63 22 18 24 85 1b e1 38 48 4d 1c 52 88 63 46
       -0.11825301 0.11707048 0.040206023 0.028380722 0.042571083 -0.1454512 0.031928312 -0.036658432 0.066221684 0.085142165 0.09105481 0.033110842 0.096967466 -0.14190361 0.11707048 0.082777105
0000d0 72 a5 c4 b0 43 18 aa 04 f2 61 4b a4 52 e2 40 ff
       0.13480842 -0.10761024 -0.070951805 -0.094602406 0.07922952 0.028380722 -0.10169759 0.0047301203 -0.016555421 0.11470541 0.08868976 -0.10879277 0.096967466 -0.035475902 0.075681925 -0.0011825301
0000e0 78 ae 5f 22 6e ca f9 5c b5 d4 60 b2 ea 92 4a 8e
       0.14190361 -0.096967466 0.11234036 0.040206023 0.13007832 -0.063856624 -0.0082777105 0.10879277 -0.08868976 -0.052031323 0.11352289 -0.092237346 -0.026015662 -0.13007832 0.087507226 -0.13480842
0000f0 7f d1 4b 77 af ee c3 95 36 b3 d0 e6 34 fd e2 f8
       0.15018132 -0.055578914 0.08868976 0.14072108 -0.09578493 -0.021285541 -0.07213433 -0.12653072 0.063856624 -0.09105481 -0.056761444 -0.030745782 0.061491564 -0.0035475902 -0.035475902 -0.009460241

Incept_DS_DigitModel/dense_256/MatMul1 i1 [256, 128] scale=0.0009842383 zero_point=0
000000 ff d9 60 ef 23 22 99 cd 6b 55 45 49 46 46 e6 76
       -0.0009842383 -0.038385294 0.09448688 -0.016732052 0.03444834 0.033464104 -0.10137655 -0.050196156 0.1053135 0.08366026 0.067912444 0.0718494 0.06889668 0.06889668 -0.025590196 0.11614013
000010 a7 14 21 e3 f9 68 00 0c e3 e8 4d 56 16 e7 a4 99
       -0.08759721 0.019684767 0.032479864 -0.028542912 -0.0068896683 0.102360785 0.0 0.01181086 -0.028542912 -0.02362172 0.07578635 0.0846445 0.021653244 -0.024605958 -0.09054993 -0.10137655
000020 7a f3 28 b5 ae 3a cd ca 74 40 b3 f8 c2 73 b2 5b
       0.12007708 -0.012795098 0.039369535 -0.07381788 -0.08070754 0.057085823 -0.050196156 -0.05314887 0.11417165 0.062991254 -0.07578635 -0.007873907 -0.061022777 0.11318741 -0.07677059 0.08956569
000030 df 77 1e 5e 3c a7 f1 c2 5b d5 6c b8 68 ae cb aa
       -0.032479864 0.117124364 0.02952715 0.092518404 0.0590543 -0.08759721 -0.014763575 -0.061022777 0.08956569 -0.04232225 0.10629774 -0.07086516 0.102360785 -0.08070754 -0.052164633 -0.0846445
000040 5a 2e 54 28 9f 53 6a b4 b7 42 75 f8 3c 22 62 e0
       0.08858145 0.045274965 0.08267602 0.039369535 -0.09547112 0.08169178 0.104329266 -0.074802116 -0.0718494 0.06495973 0.11515588 -0.007873907 0.0590543 0.033464104 0.09645536 -0.031495627
000050 d1 06 78 d7 67 f8 f5 b4 b5 0f 83 af 3a 8f 2c 98
       -0.046259202 0.00590543 0.1181086 -0.04035377 0.10137655 -0.007873907 -0.010826622 -0.074802116 -0.07381788 0.014763575 -0.12302979 -0.079723306 0.057085823 -0.11121893 0.04330649 -0.102360785
000060 c1 a6 69 ec 59 36 ff 85 ba f7 da 04 8e 7d 83 32
       -0.062007017 -0.08858145 0.10334503 -0.019684767 0.08759721 0.05314887 -0.0009842383 -0.12106132 -0.06889668 -0.008858145 -0.037401058 0.0039369534 -0.11220317 0.12302979 -0.12302979 0.049211916
000070 e2 22 40 93 ad a9 da 26 66 9c fd a7 e2 ec d9 b1
       -0.02952715 0.033464104 0.062991254 -0.10728198 -0.08169178 -0.08562873 -0.037401058 0.037401058 0.10039231 -0.09842383 -0.002952715 -0.08759721 -0.02952715 -0.019684767 -0.038385294 -0.07775483
000080 a5 36 72 1b e1 01 c1 b3 90 65 e9 0b c6 8a ec 37
       -0.08956569 0.05314887 0.11220317 0.026574435 -0.030511389 0.0009842383 -0.062007017 -0.07578635 -0.11023469 0.099408075 -0.022637483 0.010826622 -0.057085823 -0.11614013 -0.019684767 0.05413311
000090 75 53 5d 68 09 2a 36 1e 2c 51 a5 41 69 f7 cc b9
       0.11515588 0.08169178 0.09153417 0.102360785 0.008858145 0.04133801 0.05314887 0.02952715 0.04330649 0.079723306 -0.08956569 0.06397549 0.10334503 -0.008858145 -0.051180393 -0.069880925
0000a0 c3 3b 1c ed 73 b1 42 e9 ca 2b 31 29 d7 79 f5 b2
       -0.06003854 0.058070064 0.027558673 -0.018700529 0.11318741 -0.07775483 0.06495973 -0.022637483 -0.05314887 0.04232225 0.04822768 0.04035377 -0.04035377 0.11909284 -0.010826622 -0.07677059
0000b0 a6 94 bc c4 88 bb 65 68 dd 72 de 3e 37 e6 2f 8e
       -0.08858145 -0.10629774 -0.06692821 -0.0590543 -0.1181086 -0.067912444 0.099408075 0.102360785 -0.03444834 0.11220317 -0.033464104 0.061022777 0.05413311 -0.025590196 0.046259202 -0.11220317
0000c0 67 f2 bf b2 bf 33 15 e8 b5 fe 52 1c 17 a2 f5 f9
       0.10137655 -0.013779337 -0.06397549 -0.07677059 -0.06397549 0.050196156 0.020669006 -0.02362172 -0.07381788 -0.0019684767 0.08070754 0.027558673 0.022637483 -0.092518404 -0.010826622 -0.0068896683
0000d0 1e f5 d8 1d 05 36 21 a5 23 01 fb 7c 09 a6 0c 00
       0.02952715 -0.010826622 -0.039369535 0.028542912 0.004921192 0.05314887 0.032479864 -0.08956569 0.03444834 0.0009842383 -0.004921192 0.122045554 0.008858145 -0.08858145 0.01181086 0.0
0000e0 58 85 4d 9e b4 4b be 30 a4 c6 94 e7 4a 3b eb 3c
       0.08661298 -0.12106132 0.07578635 -0.09645536 -0.074802116 0.07381788 -0.06495973 0.04724344 -0.09054993 -0.057085823 -0.10629774 -0.024605958 0.072833635 0.058070064 -0.020669006 0.0590543
0000f0 1a b1 08 fc 62 7b 27 49 22 1c 38 a4 a2 d4 d9 e5
       0.025590196 -0.07775483 0.007873907 -0.0039369534 0.09645536 0.12106132 0.038385294 0.0718494 0.033464104 0.027558673 0.055117346 -0.09054993 -0.092518404 -0.04330649 -0.038385294 -0.026574435

Incept_DS_DigitModel/incept2_b4_conv1x1/Conv2D i1 [24, 1, 1, 72]
000000 aa a7 cf df 9f 74 6c 1b 6a 05 58 4a a8 37 95 54
       -86 -89 -49 -33 -97 116 108 27 106 5 88 74 -88 55 -107 84
000010 46 b3 f4 c6 81 21 d5 57 41 5f 46 e7 03 c3 da 96
       70 -77 -12 -58 -127 33 -43 87 65 95 70 -25 3 -61 -38 -106
000020 aa 36 ff 75 77 bb 5b 7a 9c b6 f9 17 a4 ca 3b 85
       -86 54 -1 117 119 -69 91 122 -100 -74 -7 23 -92 -54 59 -123
000030 72 37 87 52 b0 6a 6c 55 90 51 8f 02 b3 75 78 c0
       114 55 -121 82 -80 106 108 85 -112 81 -113 2 -77 117 120 -64
000040 91 54 85 8b 10 98 d5 a0 c6 40 fb e8 3f a1 cd 0d
       -111 84 -123 -117 16 -104 -43 -96 -58 64 -5 -24 63 -95 -51 13
000050 2c f5 4a f9 5d 5e 02 59 17 ae bd 38 f8 ca 22 bc
       44 -11 74 -7 93 94 2 89 23 -82 -67 56 -8 -54 34 -68
000060 6c f6 c6 05 5f c6 1a ce 78 70 0a a5 32 81 3f 46
       108 -10 -58 5 95 -58 26 -50 120 112 10 -91 50 -127 63 70
000070 a8 e0 59 a9 46 f8 df 8c 20 49 0e bc 4d f3 9c c3
       -88 -32 89 -87 70 -8 -33 -116 32 73 14 -68 77 -13 -100 -61
000080 3d 6a 09 7a ec f2 f4 9e c2 0b 61 e8 32 e5 37 84
       61 106 9 122 -20 -14 -12 -98 -62 11 97 -24 50 -27 55 -124
000090 e5 d4 fa 5d 21 3f 96 15 29 0f a6 dc 69 69 ba 06
       -27 -44 -6 93 33 63 -106 21 41 15 -90 -36 105 105 -70 6
0000a0 2c 4e a0 5c 7e c4 b6 67 c9 7f 06 2f de 02 17 46
       44 78 -96 92 126 -60 -74 103 -55 127 6 47 -34 2 23 70
0000b0 39 81 96 8a 35 2e d6 27 55 27 01 dc 68 69 2a fc
       57 -127 -106 -118 53 46 -42 39 85 39 1 -36 104 105 42 -4
0000c0 62 e1 90 aa 86 99 03 09 35 6e 55 8f 21 28 79 14
       98 -31 -112 -86 -122 -103 3 9 53 110 85 -113 33 40 121 20
0000d0 56 dd 20 78 97 8a df 83 95 ca f2 ff 86 6a 8c 4b
       86 -35 32 120 -105 -118 -33 -125 -107 -54 -14 -1 -122 106 -116 75
0000e0 8f 46 3c cc 62 cc 1c 56 54 b7 6c 2a 43 f2 63 a2
       -113 70 60 -52 98 -52 28 86 84 -73 108 42 67 -14 99 -94
0000f0 bb 46 f8 28 84 7f f1 cf aa ea 48 02 3c a8 79 5a
       -69 70 -8 40 -124 127 -15 -49 -86 -22 72 2 60 -88 121 90

Incept_DS_DigitModel/incept2_b3_ds_pwconv/Conv2D i1 [24, 1, 1, 12]
000000 3b 86 b3 37 65 8f df 33 10 81 11 3e 6b d7 81 43
       59 -122 -77 55 101 -113 -33 51 16 -127 17 62 107 -41 -127 67
000010 16 86 b5 64 41 30 2c 7d 1a 1f 81 f5 fa 17 94 14
       22 -122 -75 100 65 48 44 125 26 31 -127 -11 -6 23 -108 20
000020 16 6d 3f fd 77 9c 23 a1 7f d8 e6 75 29 83 d0 7c
       22 109 63 -3 119 -100 35 -95 127 -40 -26 117 41 -125 -48 124
000030 2c cd 7f 98 af 50 0b c2 b1 83 a0 23 d6 bb 54 2f
       44 -51 127 -104 -81 80 11 -62 -79 -125 -96 35 -42 -69 84 47
000040 4b f0 ee 2b 2b 1d 81 66 db 22 65 7f d9 21 4c a5
       75 -16 -18 43 43 29 -127 102 -37 34 101 127 -39 33 76 -91
000050 87 f9 8b 30 32 2b 1c 7f 86 2d 11 ac 0c 1d e7 0c
       -121 -7 -117 48 50 43 28 127 -122 45 17 -84 12 29 -25 12
000060 10 67 df cc d4 d0 ac 81 53 17 91 60 91 22 ae fc
       16 103 -33 -52 -44 -48 -84 -127 83 23 -111 96 -111 34 -82 -4
000070 24 7f 35 eb de ab e1 1a dc 24 3b 34 a2 74 81 c0
       36 127 53 -21 -34 -85 -31 26 -36 36 59 52 -94 116 -127 -64
000080 66 c3 f1 0f c4 fc 64 81 69 3f 28 a7 df 25 ff 30
       102 -61 -15 15 -60 -4 100 -127 105 63 40 -89 -33 37 -1 48
000090 be da d8 dd 2d c5 16 f4 7f 14 f7 4c 82 28 33 21
       -66 -38 -40 -35 45 -59 22 -12 127 20 -9 76 -126 40 51 33
0000a0 5e 99 bd 13 24 77 b0 81 8c cf 16 2d f6 81 a0 40
       94 -103 -67 19 36 119 -80 -127 -116 -49 22 45 -10 -127 -96 64
0000b0 68 14 26 e7 96 89 5b fa 2a a4 71 a4 e5 87 0d 81
       104 20 38 -25 -106 -119 91 -6 42 -92 113 -92 -27 -121 13 -127
0000c0 a1 e3 45 86 ff 75 7d f5 81 4f 59 7f 17 de a0 81
       -95 -29 69 -122 -1 117 125 -11 -127 79 89 127 23 -34 -96 -127
0000d0 0d 8e 94 7e a1 57 71 1a 9f 59 0b 1c 81 bb 45 9c
       13 -114 -108 126 -95 87 113 26 -97 89 11 28 -127 -69 69 -100
0000e0 5d c7 1d 37 81 01 e7 eb ac 88 9d 77 ab 85 91 bc
       93 -57 29 55 -127 1 -25 -21 -84 -120 -99 119 -85 -123 -111 -68
0000f0 be 20 70 81 a2 16 75 f2 fb 9d a7 56 7f 7f da 5a
       -66 32 112 -127 -94 22 117 -14 -5 -99 -89 86 127 127 -38 90

Incept_DS_DigitModel/incept2_b3_ds_dw_bn/FusedBatchNormV3;Incept_DS_DigitModel/incept2_b3_ds_dwconv/depthwise;Incept_DS_DigitModel/incept2_b3_bn1/FusedBatchNormV3/ReadVariableOp i1 [1, 5, 5, 12]
000000 5a 7f d7 91 9f d6 4d 48 6f f7 a6 a2 77 03 a3 5d
       90 127 -41 -111 -97 -42 77 72 111 -9 -90 -94 119 3 -93 93
000010 2b 79 9e c8 27 d9 5c 2d f8 d6 ff a1 7f 31 aa 46
       43 121 -98 -56 39 -39 92 45 -8 -42 -1 -95 127 49 -86 70
000020 81 f2 f4 46 f0 4d 4c 71 18 51 99 85 4a 64 7f ca
       -127 -14 -12 70 -16 77 76 113 24 81 -103 -123 74 100 127 -54
000030 59 31 6b f7 4f cd 50 c4 7c 25 f8 3f d1 24 34 81
       89 49 107 -9 79 -51 80 -60 124 37 -8 63 -47 36 52 -127
000040 40 b3 d1 f9 46 78 ed 83 7c 82 5a 9f e2 9a 47 da
       64 -77 -47 -7 70 120 -19 -125 124 -126 90 -97 -30 -102 71 -38
000050 4c 0d 2a 7f a7 cb 38 9d 99 8f 84 61 47 7e 02 c4
       76 13 42 127 -89 -53 56 -99 -103 -113 -124 97 71 126 2 -60
000060 f9 1e a7 fd 68 81 d7 09 b4 7d 33 c9 41 ce 7f e1
       -7 30 -89 -3 104 -127 -41 9 -76 125 51 -55 65 -50 127 -31
000070 ee f9 97 a8 22 0e 9e d8 a1 10 00 2d cc 50 e8 2c
       -18 -7 -105 -88 34 14 -98 -40 -95 16 0 45 -52 80 -24 44
000080 63 aa 39 4c 12 35 8c 74 92 7b 88 e7 3d d0 21 c3
       99 -86 57 76 18 53 -116 116 -110 123 -120 -25 61 -48 33 -61
000090 81 f4 3c 9f 0d 61 cb 84 cb 92 cb 23 6e e0 33 4d
       -127 -12 60 -97 13 97 -53 -124 -53 -110 -53 35 110 -32 51 77
0000a0 04 21 79 7f 29 7f 02 76 bb 1a 96 a0 5b 58 b8 ca
       4 33 121 127 41 127 2 118 -69 26 -106 -96 91 88 -72 -54
0000b0 86 55 c6 5f 0b cb ac 76 5c 1a 88 f1 e4 6c fd 44
       -122 85 -58 95 11 -53 -84 118 92 26 -120 -15 -28 108 -3 68
0000c0 3d 74 d5 38 c7 64 7f 25 32 ed 92 c2 b8 48 30 58
       61 116 -43 56 -57 100 127 37 50 -19 -110 -62 -72 72 48 88
0000d0 b6 02 8f 6f 4e 25 02 de a8 ff 01 c1 d7 18 59 38
       -74 2 -113 111 78 37 2 -34 -88 -1 1 -63 -41 24 89 56
0000e0 e1 43 b2 1c 3e 89 f8 ad fa a4 37 cf e2 31 88 0f
       -31 67 -78 28 62 -119 -8 -83 -6 -92 55 -49 -30 49 -120 15
0000f0 84 33 9d 87 8b 0f 63 db 45 47 33 fa 40 12 4c 14
       -124 51 -99 -121 -117 15 99 -37 69 71 51 -6 64 18 76 20

Incept_DS_DigitModel/incept2_b3_conv1x1/Conv2D i1 [12, 1, 1, 72]
000000 44 a0 9e 61 db 06 82 dc fb d4 03 44 d3 f3 ca 32
       68 -96 -98 97 -37 6 -126 -36 -5 -44 3 68 -45 -13 -54 50
000010 e9 be 18 c0 51 5b 47 69 88 14 a7 4f 7c 3b f3 f1
       -23 -66 24 -64 81 91 71 105 -120 20 -89 79 124 59 -13 -15
000020 99 7f 15 0e df 7e 4c f7 3c fa 9a 33 68 57 54 85
       -103 127 21 14 -33 126 76 -9 60 -6 -102 51 104 87 84 -123
000030 5c ad 9d 0e 1d b0 f5 13 f9 89 30 05 61 3b cb 3f
       92 -83 -99 14 29 -80 -11 19 -7 -119 48 5 97 59 -53 63
000040 a8 15 7a 5d 63 be 0a 8c 17 b5 45 17 b4 a9 1e df
       -88 21 122 93 99 -66 10 -116 23 -75 69 23 -76 -87 30 -33
000050 1e f0 8a 99 53 f3 9f ab 85 75 48 86 df 7b 0d f4
       30 -16 -118 -103 83 -13 -97 -85 -123 117 72 -122 -33 123 13 -12
000060 2c f8 5a ae d0 b3 72 7a 7e 53 ea ca 62 51 4c 0a
       44 -8 90 -82 -48 -77 114 122 126 83 -22 -54 98 81 76 10
000070 3c ea b6 ee f7 06 0e b7 ac 27 60 34 92 6a 7b 95
       60 -22 -74 -18 -9 6 14 -73 -84 39 96 52 -110 106 123 -107
000080 00 49 f4 eb 10 dc 09 41 11 b6 85 cd 5e 81 34 56
       0 73 -12 -21 16 -36 9 65 17 -74 -123 -51 94 -127 52 86
000090 db 13 17 ed d7 03 d1 5d 89 fc 77 f5 82 09 e1 31
       -37 19 23 -19 -41 3 -47 93 -119 -4 119 -11 -126 9 -31 49
0000a0 90 32 7e 47 4a ca 4b 9a 83 31 39 5b 7b a2 ff c1
       -112 50 126 71 74 -54 75 -102 -125 49 57 91 123 -94 -1 -63
0000b0 f3 4e fd 58 66 ab a6 c5 32 da 7b 4d 6b a7 73 eb
       -13 78 -3 88 102 -85 -90 -59 50 -38 123 77 107 -89 115 -21
0000c0 82 51 9d 41 98 81 82 68 ff d2 42 72 2b 62 60 c0
       -126 81 -99 65 -104 -127 -126 104 -1 -46 66 114 43 98 96 -64
0000d0 8f a7 f8 88 8a 75 69 ca 81 4e e3 82 82 07 33 97
       -113 -89 -8 -120 -118 117 105 -54 -127 78 -29 -126 -126 7 51 -105
0000e0 6c fc e0 4f cf 15 49 eb 97 21 2a 09 9e 6a c5 21
       108 -4 -32 79 -49 21 73 -21 -105 33 42 9 -98 106 -59 33
0000f0 d6 8d bf 5c 28 ee 7a 12 66 c6 bc 11 29 3e 63 9a
       -42 -115 -65 92 40 -18 122 18 102 -58 -68 17 41 62 99 -102

Incept_DS_DigitModel/incept2_b2_ds_pwconv/Conv2D i1 [48, 1, 1, 24]
000000 98 2f 93 67 a6 04 e0 99 b3 ee dd 03 ae e8 7f 9e
       -104 47 -109 103 -90 4 -32 -103 -77 -18 -35 3 -82 -24 127 -98
000010 62 30 3e a6 cb 04 d3 bb ff 67 9e ac c1 cf 7d b4
       98 48 62 -90 -53 4 -45 -69 -1 103 -98 -84 -63 -49 125 -76
000020 c9 8c 7f 78 c4 de 32 94 93 5b eb 16 c4 04 85 bd
       -55 -116 127 120 -60 -34 50 -108 -109 91 -21 22 -60 4 -123 -67
000030 e1 d0 73 92 92 0d 52 70 1b 1a 44 c0 38 d9 62 41
       -31 -48 115 -110 -110 13 82 112 27 26 68 -64 56 -39 98 65
000040 81 01 e5 4b 51 02 37 02 7f 70 01 71 b2 2c 76 8d
       -127 1 -27 75 81 2 55 2 127 112 1 113 -78 44 118 -115
000050 68 51 bb a3 7b 77 1e 43 a0 c3 ae 64 cd 32 96 59
       104 81 -69 -93 123 119 30 67 -96 -61 -82 100 -51 50 -106 89
000060 1c f0 ab 28 05 1d bd f1 f9 29 5c 30 84 eb 8d a7
       28 -16 -85 40 5 29 -67 -15 -7 41 92 48 -124 -21 -115 -89
000070 81 22 bc c0 38 c4 7a 9e 0b 81 86 33 40 2f 19 e8
       -127 34 -68 -64 56 -60 122 -98 11 -127 -122 51 64 47 25 -24
000080 4a 8a 5e bc 6e 02 68 ed f3 7a 66 c4 bd 0e 46 8a
       74 -118 94 -68 110 2 104 -19 -13 122 102 -60 -67 14 70 -118
000090 4f e3 77 7f c6 ff 20 54 a4 bf 9c 13 b1 41 16 bb
       79 -29 119 127 -58 -1 32 84 -92 -65 -100 19 -79 65 22 -69
0000a0 61 65 cd c0 8e ed c3 db 68 1c 2a 8c af fa 5b f1
       97 101 -51 -64 -114 -19 -61 -37 104 28 42 -116 -81 -6 91 -15
0000b0 60 77 79 aa bc e2 d0 4f df f4 e4 c1 88 26 61 7f
       96 119 121 -86 -68 -30 -48 79 -33 -12 -28 -63 -120 38 97 127
0000c0 c1 09 90 19 25 0d a3 e9 22 81 f3 95 ae 35 f9 03
       -63 9 -112 25 37 13 -93 -23 34 -127 -13 -107 -82 53 -7 3
0000d0 eb 7e 61 5f 32 26 1d 31 42 28 4b 3c 7a 8c cc 11
       -21 126 97 95 50 38 29 49 66 40 75 60 122 -116 -52 17
0000e0 95 0b c9 22 4b 7f b3 c0 d4 5c 75 25 c6 ec 1e 3b
       -107 11 -55 34 75 127 -77 -64 -44 92 117 37 -58 -20 30 59
0000f0 05 d9 49 57 76 6c 8a 69 26 00 1d 2a f7 8c ac 16
       5 -39 73 87 118 108 -118 105 38 0 29 42 -9 -116 -84 22

Incept_DS_DigitModel/incept2_b2_ds_dw_bn/FusedBatchNormV3;Incept_DS_DigitModel/incept2_b2_ds_dwconv/depthwise;Incept_DS_DigitModel/incept1_b2_ds_pw_bn/FusedBatchNormV3/ReadVariableOp;Incept_DS_DigitModel/incept2_b4_bn/FusedBatchNormV3 i1 [1, 3, 3, 24]
000000 05 9d 49 d8 47 f2 e6 ab f2 81 f9 9f d7 27 b4 f4
       5 -99 73 -40 71 -14 -26 -85 -14 -127 -7 -97 -41 39 -76 -12
000010 7f 81 ad 9c 81 a8 d8 0a 27 8b 81 6d d9 77 81 fd
       127 -127 -83 -100 -127 -88 -40 10 39 -117 -127 109 -39 119 -127 -3
000020 83 6b 9e 7f e2 11 e0 28 e1 3e af 0e a3 9a 5a 7f
       -125 107 -98 127 -30 17 -32 40 -31 62 -81 14 -93 -102 90 127
000030 7f 6e a5 72 75 81 f9 ab e7 d0 5e 41 d8 aa 37 9c
       127 110 -91 114 117 -127 -7 -85 -25 -48 94 65 -40 -86 55 -100
000040 09 15 b1 7e a0 b4 95 cf f4 7f 8a e4 dd ea 4a da
       9 21 -79 126 -96 -76 -107 -49 -12 127 -118 -28 -35 -22 74 -38
000050 7f b6 3f 5d 81 f7 b5 f6 fb 22 44 0a 6e 79 62 e8
       127 -74 63 93 -127 -9 -75 -10 -5 34 68 10 110 121 98 -24
000060 f9 0c 4e bf 88 63 d2 b6 32 0f 81 db 31 81 84 2b
       -7 12 78 -65 -120 99 -46 -74 50 15 -127 -37 49 -127 -124 43
000070 57 02 7f 81 d6 a5 7f cf b9 8f 93 b4 db 6c 2d e7
       87 2 127 -127 -42 -91 127 -49 -71 -113 -109 -76 -37 108 45 -25
000080 7f 38 33 9c 2d c6 83 97 11 6b 8c 89 17 10 84 f3
       127 56 51 -100 45 -58 -125 -105 17 107 -116 -119 23 16 -124 -13
000090 22 91 a6 98 7f 10 90 81 64 d9 f9 8c 3a f2 81 51
       34 -111 -90 -104 127 16 -112 -127 100 -39 -7 -116 58 -14 -127 81
0000a0 d1 7e 98 2d 14 02 5c fe da 63 93 81 a5 5f 41 c8
       -47 126 -104 45 20 2 92 -2 -38 99 -109 -127 -91 95 65 -56
0000b0 60 17 d4 e6 54 bb 01 52 51 84 c4 d1 61 51 84 62
       96 23 -44 -26 84 -69 1 82 81 -124 -60 -47 97 81 -124 98
0000c0 86 2b bd c9 5d d5 84 67 fc c6 a6 bb a6 45 57 7f
       -122 43 -67 -55 93 -43 -124 103 -4 -58 -90 -69 -90 69 87 127
0000d0 d3 9c a6 73 4a 81 14 0b
       -45 -100 -90 115 74 -127 20 11

Incept_DS_DigitModel/incept2_b2_conv1x1/Conv2D i1 [24, 1, 1, 72]
000000 e0 69 ca fa 77 fc 0c c7 e9 41 64 77 d9 78 25 7a
       -32 105 -54 -6 119 -4 12 -57 -23 65 100 119 -39 120 37 122
000010 84 d3 60 36 73 d3 1c 85 a3 f3 e8 e5 ce 36 c9 16
       -124 -45 96 54 115 -45 28 -123 -93 -13 -24 -27 -50 54 -55 22
000020 6f 87 b1 6e 32 52 ef f6 b5 86 ed fc 48 c1 da e4
       111 -121 -79 110 50 82 -17 -10 -75 -122 -19 -4 72 -63 -38 -28
000030 53 de da 4e 14 35 64 3d a6 01 69 a5 f5 42 42 3c
       83 -34 -38 78 20 53 100 61 -90 1 105 -91 -11 66 66 60
000040 ba 5c 8c ac ed cd 81 d9 7c aa 5b 22 22 ea 34 58
       -70 92 -116 -84 -19 -51 -127 -39 124 -86 91 34 34 -22 52 88
000050 82 e7 8e 3c 61 2f e9 de 98 e4 57 b7 4c 7c ab a8
       -126 -25 -114 60 97 47 -23 -34 -104 -28 87 -73 76 124 -85 -88
000060 f4 b0 57 d0 42 ff 2d 8f b6 38 75 00 8c f7 36 37
       -12 -80 87 -48 66 -1 45 -113 -74 56 117 0 -116 -9 54 55
000070 a0 78 c3 23 47 84 d3 e7 bc 05 98 9c f0 30 fa d8
       -96 120 -61 35 71 -124 -45 -25 -68 5 -104 -100 -16 48 -6 -40
000080 a9 40 b5 f6 76 a1 d9 01 c0 c5 02 81 a3 d8 90 e4
       -87 64 -75 -10 118 -95 -39 1 -64 -59 2 -127 -93 -40 -112 -28
000090 1f 3e bc 1d 96 69 46 be b4 81 ca 42 16 34 0a 9f
       31 62 -68 29 -106 105 70 -66 -76 -127 -54 66 22 52 10 -97
0000a0 b3 b9 61 b3 db 69 c6 6d e5 73 1e ae fe 9c bd 85
       -77 -71 97 -77 -37 105 -58 109 -27 115 30 -82 -2 -100 -67 -123
0000b0 de 84 ff d4 bb 51 4e d1 88 cd 47 b6 0d 51 44 cd
       -34 -124 -1 -44 -69 81 78 -47 -120 -51 71 -74 13 81 68 -51
0000c0 71 17 21 16 98 3d f4 c1 34 67 32 02 94 a6 39 43
       113 23 33 22 -104 61 -12 -63 52 103 50 2 -108 -90 57 67
0000d0 be 5c d5 6d d9 14 da a2 be ab e2 48 6a 73 8e 7c
       -66 92 -43 109 -39 20 -38 -94 -66 -85 -30 72 106 115 -114 124
0000e0 a4 cd fc 69 6a 4d bd 0a d3 db c7 5c 8d 37 29 f4
       -92 -51 -4 105 106 77 -67 10 -45 -37 -57 92 -115 55 41 -12
0000f0 ac 4e d2 a1 be 4b a2 5e 5a 25 b0 d2 90 73 c3 dc
       -84 78 -46 -95 -66 75 -94 94 90 37 -80 -46 -112 115 -61 -36

Incept_DS_DigitModel/incept2_b1_conv/Conv2D i1 [32, 1, 1, 72]
000000 b2 e0 41 0f 78 22 f2 e7 21 5e 7c aa 1a 54 01 ff
       -78 -32 65 15 120 34 -14 -25 33 94 124 -86 26 84 1 -1
000010 83 1b 49 aa a4 bf de 94 a8 81 c7 76 a2 9a 9f b1
       -125 27 73 -86 -92 -65 -34 -108 -88 -127 -57 118 -94 -102 -97 -79
000020 ec 9d d9 90 18 e7 1e fa f3 d5 81 96 c0 15 dc 15
       -20 -99 -39 -112 24 -25 30 -6 -13 -43 -127 -106 -64 21 -36 21
000030 ee 74 64 18 74 61 62 ce 09 e3 d1 ca fb ac f9 37
       -18 116 100 24 116 97 98 -50 9 -29 -47 -54 -5 -84 -7 55
000040 30 46 26 00 7b 3f 21 c8 61 ac a5 bd df f8 d3 2e
       48 70 38 0 123 63 33 -56 97 -84 -91 -67 -33 -8 -45 46
000050 81 9e 59 57 86 36 86 3f 58 66 c1 90 71 37 6f 05
       -127 -98 89 87 -122 54 -122 63 88 102 -63 -112 113 55 111 5
000060 e7 99 db 0e 5b 23 37 b3 f9 66 01 1b 29 b9 74 51
       -25 -103 -37 14 91 35 55 -77 -7 102 1 27 41 -71 116 81
000070 2f 0d 2c c4 8d d0 72 25 1f 98 e1 07 e2 73 71 d4
       47 13 44 -60 -115 -48 114 37 31 -104 -31 7 -30 115 113 -44
000080 9c e1 64 51 fb d0 03 bb e9 bf bf d7 0d 8b 82 dd
       -100 -31 100 81 -5 -48 3 -69 -23 -65 -65 -41 13 -117 -126 -35
000090 66 c6 bf 8a 0a f4 30 b1 83 2b 02 31 41 c9 45 18
       102 -58 -65 -118 10 -12 48 -79 -125 43 2 49 65 -55 69 24
0000a0 27 ae 54 c4 99 ad 11 8b a6 e1 d4 bf 3d bd dd 40
       39 -82 84 -60 -103 -83 17 -117 -90 -31 -44 -65 61 -67 -35 64
0000b0 e7 7f 9a 3d 4b 0c 4e 05 17 6f 7d 0b 9b 4c 6c eb
       -25 127 -102 61 75 12 78 5 23 111 125 11 -101 76 108 -21
0000c0 3b 07 d9 83 cc 58 0f 2a f6 2e 25 aa d3 96 83 3f
       59 7 -39 -125 -52 88 15 42 -10 46 37 -86 -45 -106 -125 63
0000d0 8f 32 f7 30 86 b5 ab 19 62 57 72 33 3a b7 5f 47
       -113 50 -9 48 -122 -75 -85 25 98 87 114 51 58 -73 95 71
0000e0 d5 b8 0a c2 3e a6 53 48 5d 4f 4c 27 82 2a 6e bc
       -43 -72 10 -62 62 -90 83 72 93 79 76 39 -126 42 110 -68
0000f0 88 ed 86 b4 93 09 41 ee 32 e3 76 30 29 90 43 93
       -120 -19 -122 -76 -109 9 65 -18 50 -29 118 48 41 -112 67 -109

Incept_DS_DigitModel/incept1_b4_conv1x1/Conv2D i1 [16, 1, 1, 16]
000000 de 5c 8e a8 a2 b3 71 61 81 a5 3e 7f 1e 0d cf ae
       -34 92 -114 -88 -94 -77 113 97 -127 -91 62 127 30 13 -49 -82
000010 7f 6f 32 92 85 47 a7 e1 68 ee 1b c8 81 b1 83 45
       127 111 50 -110 -123 71 -89 -31 104 -18 27 -56 -127 -79 -125 69
000020 0a 5f 81 f2 70 b8 89 8f f1 19 8d 7a 68 8e 37 52
       10 95 -127 -14 112 -72 -119 -113 -15 25 -115 122 104 -114 55 82
000030 7f 76 c1 02 99 d3 18 54 48 52 b3 b1 d4 d3 df 12
       127 118 -63 2 -103 -45 24 84 72 82 -77 -79 -44 -45 -33 18
000040 db 2d 2b 3a ed 2d 3c c1 81 30 33 55 6e af a2 6e
       -37 45 43 58 -19 45 60 -63 -127 48 51 85 110 -81 -94 110
000050 3a e8 74 a6 7f 32 65 1e a5 76 34 66 29 34 33 7d
       58 -24 116 -90 127 50 101 30 -91 118 52 102 41 52 51 125
000060 8b d6 06 ed 01 4f 81 c0 7d 11 f3 b4 60 0b ec b5
       -117 -42 6 -19 1 79 -127 -64 125 17 -13 -76 96 11 -20 -75
000070 dd 97 09 c9 a0 98 2d 2e d2 ec 1e 81 68 83 d6 c4
       -35 -105 9 -55 -96 -104 45 46 -46 -20 30 -127 104 -125 -42 -60
000080 10 a8 cf f9 76 37 86 7d f9 e7 b1 87 82 9c 7f 5e
       16 -88 -49 -7 118 55 -122 125 -7 -25 -79 -121 -126 -100 127 94
000090 23 d9 7c 81 a4 fd 41 5e a9 c6 1c 1b 49 70 7e f5
       35 -39 124 -127 -92 -3 65 94 -87 -58 28 27 73 112 126 -11
0000a0 4d 7b 6c 7f 8f 3b d2 cc 0e fe d2 3d e4 8b 9a 05
       77 123 108 127 -113 59 -46 -52 14 -2 -46 61 -28 -117 -102 5
0000b0 e3 86 0c 6e 1d 73 e2 c9 03 9d 28 7f 65 e5 f9 5b
       -29 -122 12 110 29 115 -30 -55 3 -99 40 127 101 -27 -7 91
0000c0 5c b6 ef e5 08 7a 9a 26 8a d5 bf ad 7f 04 2f 15
       92 -74 -17 -27 8 122 -102 38 -118 -43 -65 -83 127 4 47 21
0000d0 06 d5 13 e7 31 a7 73 83 56 d6 2e 40 3e ca 74 81
       6 -43 19 -25 49 -89 115 -125 86 -42 46 64 62 -54 116 -127
0000e0 28 85 c3 3e d7 09 c0 e4 81 68 cf 0d 50 28 43 69
       40 -123 -61 62 -41 9 -64 -28 -127 104 -49 13 80 40 67 105
0000f0 a9 ba 74 70 88 a9 81 2e bb 3c e1 84 2f b1 ef 22
       -87 -70 116 112 -120 -87 -127 46 -69 60 -31 -124 47 -79 -17 34

Incept_DS_DigitModel/incept1_b3_ds_pwconv/Conv2D i1 [16, 1, 1, 8]
000000 c6 9e 84 89 b1 c8 4d 81 d3 10 41 ae 57 df 81 6c
       -58 -98 -124 -119 -79 -56 77 -127 -45 16 65 -82 87 -33 -127 108
000010 45 76 81 c3 9c f1 ad 9a ce 3e d8 b7 37 cf a3 7f
       69 118 -127 -61 -100 -15 -83 -102 -50 62 -40 -73 55 -49 -93 127
000020 dd fa 03 d7 15 81 db ec 7e 81 53 46 fd ee e8 88
       -35 -6 3 -41 21 -127 -37 -20 126 -127 83 70 -3 -18 -24 -120
000030 2d 96 55 af 04 ec 81 1e 3a 1a 7a 29 cd d6 71 81
       45 -106 85 -81 4 -20 -127 30 58 26 122 41 -51 -42 113 -127
000040 f1 7f 4c 50 c2 45 92 e9 ee 2d ee 17 2b aa 7f 0d
       -15 127 76 80 -62 69 -110 -23 -18 45 -18 23 43 -86 127 13
000050 d6 32 2e e4 7f a1 6c 56 99 9c 6e 98 32 7f a9 9a
       -42 50 46 -28 127 -95 108 86 -103 -100 110 -104 50 127 -87 -102
000060 fd a4 7f 52 64 2d 4c a5 01 a3 7f d0 b9 6d 92 43
       -3 -92 127 82 100 45 76 -91 1 -93 127 -48 -71 109 -110 67
000070 40 ab b4 55 7f 9c 7e 2d f9 f4 01 6b 7f 0e 76 21
       64 -85 -76 85 127 -100 126 45 -7 -12 1 107 127 14 118 33

Incept_DS_DigitModel/incept1_b3_ds_dw_bn/FusedBatchNormV3;Incept_DS_DigitModel/incept1_b3_ds_dwconv/depthwise;Incept_DS_DigitModel/incept1_b3_bn1/FusedBatchNormV3/ReadVariableOp i1 [1, 5, 5, 8]
000000 b4 68 2a d0 e0 7f ce c4 bc c0 e4 d3 7f 2d 46 c0
       -76 104 42 -48 -32 127 -50 -60 -68 -64 -28 -45 127 45 70 -64
000010 5d 4c 73 27 e4 a0 ae 83 9a d5 be d6 bf 12 29 54
       93 76 115 39 -28 -96 -82 -125 -102 -43 -66 -42 -65 18 41 84
000020 0c 7e b5 ba 7d 6d 45 2b a6 11 ef f9 6b d2 48 f0
       12 126 -75 -70 125 109 69 43 -90 17 -17 -7 107 -46 72 -16
000030 f4 71 14 b3 55 3b 7a d3 e7 50 c1 1e 10 6e 3d a8
       -12 113 20 -77 85 59 122 -45 -25 80 -63 30 16 110 61 -88
000040 39 82 91 fa cc 45 d4 a6 4b 9e 1f 74 77 a8 5e 9e
       57 -126 -111 -6 -52 69 -44 -90 75 -98 31 116 119 -88 94 -98
000050 42 03 1f 63 95 04 1a 55 11 7f d4 e4 a1 70 91 38
       66 3 31 99 -107 4 26 85 17 127 -44 -28 -95 112 -111 56
000060 91 36 e2 7b a6 3e d2 18 ee c2 27 ae 41 ff 11 96
       -111 54 -30 123 -90 62 -46 24 -18 -62 39 -82 65 -1 17 -106
000070 eb 5f 30 f0 e6 6d 94 3c d3 de bf bb 6a 18 65 af
       -21 95 48 -16 -26 109 -108 60 -45 -34 -65 -69 106 24 101 -81
000080 4a 5f 3c c5 9b dc d5 ca a5 b4 81 83 44 6f 09 e5
       74 95 60 -59 -101 -36 -43 -54 -91 -76 -127 -125 68 111 9 -27
000090 8c 6b cb 81 77 4e 8f cd 37 eb 61 42 ec c5 67 11
       -116 107 -53 -127 119 78 -113 -51 55 -21 97 66 -20 -59 103 17
0000a0 99 86 d4 5f 43 0e 0e da 7f e1 c1 30 03 23 7f d9
       -103 -122 -44 95 67 14 14 -38 127 -31 -63 48 3 35 127 -39
0000b0 da 16 e5 31 4f 1d 30 93 ed df ac 67 8d 75 35 7f
       -38 22 -27 49 79 29 48 -109 -19 -33 -84 103 -115 117 53 127
0000c0 2c 82 c2 1f 19 b1 71 68
       44 -126 -62 31 25 -79 113 104

Incept_DS_DigitModel/incept1_b3_conv1x1/Conv2D i1 [8, 1, 1, 16]
000000 18 81 6a e2 2f b6 3a 5d 0d 34 00 d3 ce f8 60 21
       24 -127 106 -30 47 -74 58 93 13 52 0 -45 -50 -8 96 33
000010 19 c5 53 81 ab a8 a1 5e 16 b0 9a 6e 0c c7 a5 6e
       25 -59 83 -127 -85 -88 -95 94 22 -80 -102 110 12 -57 -91 110
000020 8e 0c 94 bf e2 a2 b5 21 81 d5 8b 8d f2 eb d7 15
       -114 12 -108 -65 -30 -94 -75 33 -127 -43 -117 -115 -14 -21 -41 21
000030 aa d3 7f 00 2a 49 f6 c9 8c 32 fd eb 95 22 a0 7c
       -86 -45 127 0 42 73 -10 -55 -116 50 -3 -21 -107 34 -96 124
000040 9f da 7f 3b ea ed e9 b5 3e 6c aa b5 fb bc 35 f5
       -97 -38 127 59 -22 -19 -23 -75 62 108 -86 -75 -5 -68 53 -11
000050 a6 15 8c d4 b0 5c ad 7f 4d c2 bf 78 db 90 5c 5c
       -90 21 -116 -44 -80 92 -83 127 77 -62 -65 120 -37 -112 92 92
000060 0b 83 91 3e 6d 3e 15 bd 92 eb 8d 63 ad 08 7f 4a
       11 -125 -111 62 109 62 21 -67 -110 -21 -115 99 -83 8 127 74
000070 57 5a a8 1b 0c f8 86 8a a3 86 f1 cd 23 2b 5b 7f
       87 90 -88 27 12 -8 -122 -118 -93 -122 -15 -51 35 43 91 127

Incept_DS_DigitModel/incept1_b2_ds_pwconv/Conv2D i1 [24, 1, 1, 16]
000000 c4 8b f8 67 85 6f 26 59 3e 6c d4 aa 84 34 da 7f
       -60 -117 -8 103 -123 111 38 89 62 108 -44 -86 -124 52 -38 127
000010 01 0b c7 aa 93 7d 8b b4 81 02 66 df 60 21 86 e0
       1 11 -57 -86 -109 125 -117 -76 -127 2 102 -33 96 33 -122 -32
000020 ca 5b 98 3b 99 2a dd a6 06 52 65 ec 65 7f 59 9c
       -54 91 -104 59 -103 42 -35 -90 6 82 101 -20 101 127 89 -100
000030 65 52 69 a5 33 07 9a cf 1a e2 e6 fc bf 7f 66 e5
       101 82 105 -91 51 7 -102 -49 26 -30 -26 -4 -65 127 102 -27
000040 10 bd fd b7 3d 03 e7 e0 c5 43 83 51 54 66 81 c9
       16 -67 -3 -73 61 3 -25 -32 -59 67 -125 81 84 102 -127 -55
000050 20 c6 64 78 b6 59 ad c3 86 ab eb e0 1a d5 fc 81
       32 -58 100 120 -74 89 -83 -61 -122 -85 -21 -32 26 -43 -4 -127
000060 d4 d9 ae b4 ce f6 d4 65 63 00 ed 81 13 4d b8 f5
       -44 -39 -82 -76 -50 -10 -44 101 99 0 -19 -127 19 77 -72 -11
000070 23 bd 63 6a c0 c7 3e 7f f6 2c 9e 91 63 f1 e8 df
       35 -67 99 106 -64 -57 62 127 -10 44 -98 -111 99 -15 -24 -33
000080 78 a3 14 4e 42 53 17 41 46 45 7f a3 16 d5 e9 00
       120 -93 20 78 66 83 23 65 70 69 127 -93 22 -43 -23 0
000090 85 fe a6 60 41 95 65 1d 64 c6 19 4f 94 60 7f 99
       -123 -2 -90 96 65 -107 101 29 100 -58 25 79 -108 96 127 -103
0000a0 ba 18 95 e2 3f 9f 22 e4 ca 19 9c 64 c6 2d 7f a0
       -70 24 -107 -30 63 -97 34 -28 -54 25 -100 100 -58 45 127 -96
0000b0 55 70 20 c4 58 4c ce 39 e6 08 1c 7a 7f b1 75 ff
       85 112 32 -60 88 76 -50 57 -26 8 28 122 127 -79 117 -1
0000c0 41 83 81 88 ae b6 94 de 09 a3 3b 8d a3 53 9e 2f
       65 -125 -127 -120 -82 -74 -108 -34 9 -93 59 -115 -93 83 -98 47
0000d0 81 d6 b4 d6 1d 51 ef f5 71 2c ac c8 61 50 b6 26
       -127 -42 -76 -42 29 81 -17 -11 113 44 -84 -56 97 80 -74 38
0000e0 4d c3 f9 a4 cd c7 30 8b 1d 74 06 15 5c 81 25 82
       77 -61 -7 -92 -51 -57 48 -117 29 116 6 21 92 -127 37 -126
0000f0 55 da 7f 82 78 0f 79 65 17 b1 0d fb 29 86 72 98
       85 -38 127 -126 120 15 121 101 23 -79 13 -5 41 -122 114 -104

Incept_DS_DigitModel/incept1_b2_ds_dw_bn/FusedBatchNormV3;Incept_DS_DigitModel/incept1_b2_ds_dwconv/depthwise;Incept_DS_DigitModel/incept1_b1_bn/FusedBatchNormV3/ReadVariableOp;Incept_DS_DigitModel/incept1_b4_bn/FusedBatchNormV3 i1 [1, 3, 3, 16]
000000 f5 88 50 cf 4d 79 ec 6a 53 06 48 1e 79 01 09 ac
       -11 -120 80 -49 77 121 -20 106 83 6 72 30 121 1 9 -84
000010 3c 4f ea 26 3c d7 b5 7f 9a 81 e2 74 33 81 97 9c
       60 79 -22 38 60 -41 -75 127 -102 -127 -30 116 51 -127 -105 -100
000020 7f 31 89 f6 34 45 94 89 12 72 1c 75 d1 32 15 78
       127 49 -119 -10 52 69 -108 -119 18 114 28 117 -47 50 21 120
000030 71 23 81 f2 f9 9e dc 9f b3 ca d0 c0 3a 29 7f 7f
       113 35 -127 -14 -7 -98 -36 -97 -77 -54 -48 -64 58 41 127 127
000040 0b 0d 62 f3 a6 18 6e 6a 27 c8 05 b9 7f 81 ad f9
       11 13 98 -13 -90 24 110 106 39 -56 5 -71 127 -127 -83 -7
000050 dc d6 07 81 cb b2 7f bb 46 d9 7f e5 95 dd c3 9d
       -36 -42 7 -127 -53 -78 127 -69 70 -39 127 -27 -107 -35 -61 -99
000060 5f 7f 7a 2c 85 6b 6e 5e b4 e9 43 8c fc a7 db 6e
       95 127 122 44 -123 107 110 94 -76 -23 67 -116 -4 -89 -37 110
000070 cf 3f 6d 32 81 bc c4 1d 2e b4 2e d4 68 a8 ce 66
       -49 63 109 50 -127 -68 -60 29 46 -76 46 -44 104 -88 -50 102
000080 e9 a2 05 18 5e 7f 58 8d 7f b0 94 7f cd d0 c7 1f
       -23 -94 5 24 94 127 88 -115 127 -80 -108 127 -51 -48 -57 31

Incept_DS_DigitModel/incept1_b2_conv1x1/Conv2D i1 [16, 1, 1, 16]
000000 23 84 26 7d 89 68 81 00 7f 84 ed 73 71 04 b0 13
       35 -124 38 125 -119 104 -127 0 127 -124 -19 115 113 4 -80 19
000010 a4 b5 58 a5 d3 25 73 f7 d2 4f 8e 7f af 68 e0 92
       -92 -75 88 -91 -45 37 115 -9 -46 79 -114 127 -81 104 -32 -110
000020 d3 17 18 82 bf 21 56 de 9f 7f ad 00 11 99 41 0a
       -45 23 24 -126 -65 33 86 -34 -97 127 -83 0 17 -103 65 10
000030 77 f9 07 3e 30 01 11 81 dd 4a f0 b2 fa 1a ce 10
       119 -7 7 62 48 1 17 -127 -35 74 -16 -78 -6 26 -50 16
000040 7e b9 7e 35 63 89 5b 81 2e 34 9c 71 ae be 5f e2
       126 -71 126 53 99 -119 91 -127 46 52 -100 113 -82 -66 95 -30
000050 76 b7 5d 49 6b d4 a7 12 ad e2 be ce 70 7f f5 eb
       118 -73 93 73 107 -44 -89 18 -83 -30 -66 -50 112 127 -11 -21
000060 04 e0 7b 6a e2 07 0d 79 29 51 ed 54 7f e0 61 58
       4 -32 123 106 -30 7 13 121 41 81 -19 84 127 -32 97 88
000070 e6 86 1d 20 d2 a2 aa d0 4b ab 81 3d de 58 f2 6d
       -26 -122 29 32 -46 -94 -86 -48 75 -85 -127 61 -34 88 -14 109
000080 dd 28 75 81 95 70 59 c6 0e 49 7a 6f 8e 18 a2 ca
       -35 40 117 -127 -107 112 89 -58 14 73 122 111 -114 24 -94 -54
000090 ec c1 7b 42 34 db fc 7f a7 c2 53 01 eb e1 a0 60
       -20 -63 123 66 52 -37 -4 127 -89 -62 83 1 -21 -31 -96 96
0000a0 41 bf cb 45 13 f5 3a e8 34 81 48 13 a2 e4 77 3a
       65 -65 -53 69 19 -11 58 -24 52 -127 72 19 -94 -28 119 58
0000b0 d0 2b d9 c8 b7 32 f7 71 54 c9 91 76 81 cb 13 fe
       -48 43 -39 -56 -73 50 -9 113 84 -55 -111 118 -127 -53 19 -2
0000c0 18 4f 81 b8 0f 55 d5 ab d0 71 86 f4 a4 e3 2d e4
       24 79 -127 -72 15 85 -43 -85 -48 113 -122 -12 -92 -29 45 -28
0000d0 ef c3 f9 f9 7f 09 81 57 1a 8f c8 5b 39 bf 55 22
       -17 -61 -7 -7 127 9 -127 87 26 -113 -56 91 57 -65 85 34
0000e0 c2 b9 83 ca 46 35 51 81 78 af 8e cd d3 bf 45 28
       -62 -71 -125 -54 70 53 81 -127 120 -81 -114 -51 -45 -65 69 40
0000f0 c4 fc 76 f6 4f ed df 78 54 81 0a 38 a5 b3 10 4d
       -60 -4 118 -10 79 -19 -33 120 84 -127 10 56 -91 -77 16 77

Incept_DS_DigitModel/incept1_b1_conv/Conv2D i1 [16, 1, 1, 16]
000000 d3 af b6 29 98 40 7f fc fc c8 4c 5e 09 b3 c4 37
       -45 -81 -74 41 -104 64 127 -4 -4 -56 76 94 9 -77 -60 55
000010 6e 3d 74 bb 65 53 3f 93 3f d0 63 17 6f 36 2c 7f
       110 61 116 -69 101 83 63 -109 63 -48 99 23 111 54 44 127
000020 31 4e 53 70 81 82 51 fe 89 81 b0 ed b8 cc bf 3e
       49 78 83 112 -127 -126 81 -2 -119 -127 -80 -19 -72 -52 -65 62
000030 57 85 da d5 b7 6c 7f 39 f9 96 5a d6 f5 e0 a3 70
       87 -123 -38 -43 -73 108 127 57 -7 -106 90 -42 -11 -32 -93 112
000040 7f fc 27 15 26 8e fa 4b 96 75 4a 47 d5 36 32 47
       127 -4 39 21 38 -114 -6 75 -106 117 74 71 -43 54 50 71
000050 4d f9 cf 5a f3 dd 3f 64 81 1b 36 41 3e 95 ba 21
       77 -7 -49 90 -13 -35 63 100 -127 27 54 65 62 -107 -70 33
000060 42 54 73 14 2e 08 38 6b 49 7b 8b 7f c1 bd 04 1d
       66 84 115 20 46 8 56 107 73 123 -117 127 -63 -67 4 29
000070 ca ef 96 7f f8 57 75 61 88 f2 0d 99 3a e1 a2 d8
       -54 -17 -106 127 -8 87 117 97 -120 -14 13 -103 58 -31 -94 -40
000080 3e 52 7b fd cd bf 19 f2 76 30 18 59 51 81 88 dc
       62 82 123 -3 -51 -65 25 -14 118 48 24 89 81 -127 -120 -36
000090 88 04 aa 7f 4c 09 b2 d8 d9 9b 3b 6f 42 99 a8 66
       -120 4 -86 127 76 9 -78 -40 -39 -101 59 111 66 -103 -88 102
0000a0 ac 21 12 4f 90 7b c0 03 99 c1 7f 33 f8 08 b4 f7
       -84 33 18 79 -112 123 -64 3 -103 -63 127 51 -8 8 -76 -9
0000b0 35 52 81 c2 ce b3 a9 c4 4f 0e 6e 60 91 85 c2 39
       53 82 -127 -62 -50 -77 -87 -60 79 14 110 96 -111 -123 -62 57
0000c0 8f 0d eb 57 6a a9 99 15 3f 81 14 ba b8 cd 81 1d
       -113 13 -21 87 106 -87 -103 21 63 -127 20 -70 -72 -51 -127 29
0000d0 2b f3 76 eb 36 06 8a 94 45 ad 7f 2a 6e 1b 5d 1f
       43 -13 118 -21 54 6 -118 -108 69 -83 127 42 110 27 93 31
0000e0 51 c2 e1 25 08 d0 31 28 81 f8 1d f4 82 22 25 57
       81 -62 -31 37 8 -48 49 40 -127 -8 29 -12 -126 34 37 87
0000f0 64 4d 1e 00 63 5a 79 81 e2 33 47 9d a3 46 45 20
       100 77 30 0 99 90 121 -127 -30 51 71 -99 -93 70 69 32

Incept_DS_DigitModel/stem_conv/Conv2D i1 [16, 3, 3, 1]
000000 f8 84 8c 79 5e 63 07 9e 81 28 30 48 a7 a8 59 24
       -8 -124 -116 121 94 99 7 -98 -127 40 48 72 -89 -88 89 36
000010 7f 03 f2 05 20 c0 1a 58 8f e2 81 dd 4c 96 7f ef
       127 3 -14 5 32 -64 26 88 -113 -30 -127 -35 76 -106 127 -17
000020 94 20 d1 e7 6c 74 13 f7 20 dd 81 ff 70 51 75 50
       -108 32 -47 -25 108 116 19 -9 32 -35 -127 -1 112 81 117 80
000030 5e 92 72 81 90 91 95 cd 7f 16 fe 1b 30 17 c4 7f
       94 -110 114 -127 -112 -111 -107 -51 127 22 -2 27 48 23 -60 127
000040 f7 0e c2 f9 f5 2c 68 cd 7f fc bc cc 0c a5 f6 f1
       -9 14 -62 -7 -11 44 104 -51 127 -4 -68 -52 12 -91 -10 -15
000050 4a b5 53 00 5b 8d 1a 7f ef da 49 3a 12 dc 03 c3
       74 -75 83 0 91 -115 26 127 -17 -38 73 58 18 -36 3 -61
000060 ae f9 81 5c 7f d6 70 9e 87 46 38 cf 98 0a c0 7f
       -82 -7 -127 92 127 -42 112 -98 -121 70 56 -49 -104 10 -64 127
000070 93 85 64 a1 85 3d a0 a8 81 bf 43 56 95 1a 7f 82
       -109 -123 100 -95 -123 61 -96 -88 -127 -65 67 86 -107 26 127 -126
000080 e3 62 c2 73 b6 33 29 81 03 05 e4 1c e0 48 47 30
       -29 98 -62 115 -74 51 41 -127 3 5 -28 28 -32 72 71 48
